model.pth (torch, 17216 bytes, 4 tensors)

linear1.weight f4 [256, 11]
00000000: 0e40 1fbc 5bbd db3d aec7 073e 90eb 623e
00000010: f27b a9be 5ba2 0f3e 548a 92be 9aa8 2a3d
00000020: 8564 a8bd 6db9 34be a9ea 8b3d 82f8 c4bd
00000030: 5d43 edbd a2eb 36be 2657 883e 4887 96be
00000040: 3497 493e 8546 013e 5be3 36bd 289f f93d
00000050: 51d8 8e3b b293 91bd 4164 d2bd 152a a43c
00000060: 4304 49be 08ca 8cbe c88d 32be 71bc 0dbd
00000070: f68a 99bd 403e 26bd a8aa 18bc 540e 7abe
00000080: 184a 1bbe f177 a73e 9b3d c5bd a4d5 bd3d
00000090: 614a 9a3e b4fb 6c3e 57fb 1b3e 3965 c2bc
000000a0: 925f 7d3e 84c5 83bd 67ae 4dbe ac76 b0bd
000000b0: f818 273e 2793 a03c a3d6 983e 8717 98be
000000c0: 39e4 c6bc 137b 19be e5aa 7abe 059b 25be
000000d0: fd6a 82be 011d 2dbe 1eeb 08be 030f 1e3e
000000e0: 533c a43e ba22 7abe 1bce 12be 8729 6bbe
000000f0: 40ac 16be e1af 8f3d 2a1b 103e 27d7 59be
00000100: 8f57 09be 201f a4bd dce3 873e a75b d53e
00000110: 1d9c d03d 6895 063e d6c5 823e 238d dbbc
00000120: 98af 7c3c b713 4d3d dd90 29bd 6dad 233e
00000130: 3829 d63d 1b5d 2d3e 7531 943e 9ad3 3ebe
00000140: c1ec 7c3e e8e5 a3be 5648 aabd 7d09 183e
00000150: cc30 a3bd 2d97 633e f0bf 24be cab5 353e
00000160: 4466 643e d346 d1bd e655 603e bca4 c5bd
00000170: 450c 28be 49d4 9b3e ef59 9abe b9f2 50be
00000180: b672 f23c d64e f33a c2a3 54be 8fbf fc3d
00000190: ee3d a13e 1ebb 223e 02ff 05bd ae3d 7ebe
000001a0: 88f1 a6bd 73d5 2d3e 8329 80be fa5c 333d
000001b0: 95a3 9e3e 9947 9ebc 4ae0 2c3d 7b09 73be
000001c0: 6a45 a63c bda1 4abe a483 4ebe f47f 6a3d
000001d0: e4b0 643d d87c f93d ac52 3e3e 7b0d 8fbe
000001e0: 74ac 79be ae5d bc3d 66f5 5c3d 5530 643e
000001f0: 8f05 533e 19a5 22bb 744f 8dbe ab87 b53d
00000200: 3899 783d 8bd2 8abe bd45 9fbe c649 b0be
00000210: e81b 09bd d0bc bcbd 6f81 2cbe 2577 5e3e
00000220: d8c0 41be 8107 14be b454 7abe 0bc1 8d3d
00000230: b143 e93d b2d5 013e 828f 4c3e 57d9 863e
00000240: f2b9 31bd ea2b 933e d135 dabd c013 5f3e
00000250: 6d55 96bd 431f a0bd 1b41 093e 9573 49be
00000260: 42d0 813e 7d21 8dbc da23 153e 7f9f 11be
00000270: dbca 063e b0b9 4f3c 682d 99be 69e2 89bd
00000280: f26d d33d f12f 4abe 092e eb3d 66aa e43d
00000290: cc94 14be 735a 00bc 9364 af3e 587f 5ebe
000002a0: 2261 7b3e aba7 ed3d f107 f03d 8db6 1f3e
000002b0: c6e0 803d 665c 8fbe 5a33 8f3e 813c 77be
000002c0: 316c 803c 9d69 58be 3065 50be 9a86 bebe
000002d0: 6b19 553d adaf a9be bcda b2be 58d6 a53d
000002e0: 25a3 8ebe bcf4 90bb ac55 673d b2c3 863e
000002f0: c736 133d d74e 733e 261e be3b 595e 89be
00000300: 7675 72be ff6a 6c3e c49c 9fbe 58b0 333d
00000310: e09a 8ebb 7432 fdbc c4e6 7abb 6297 b43e
00000320: 875a 173e 4aa0 233d 5064 193e 4755 4e3d
00000330: 61ef 59bd 5c9d e03c 345d b63c 97b2 553c
00000340: e008 73bd 47ea 853e 53e8 5d3e d35a f4bd
00000350: 9ee0 17be 5894 66be 8f76 033d 7d63 a3bd
00000360: 2b22 603d f2e2 883d 9856 6a3e 5517 843e
00000370: b384 8d3d adca 91be a0fe 0abe 6f3a e4bd
00000380: c4c8 c6bd f39a 81be beb0 99bd c00b 26bd
00000390: 87ec 73be 49b9 5fbe c16d c03c 9dd1 163e
000003a0: 5040 c33e 3bac da3d e0f7 803e f13a 59be
000003b0: de99 2b3e ed13 d0bd 4cf5 953d 5191 183e
000003c0: 9ef2 debd 70cd 523e 83e2 97be af9e 51bc
000003d0: 0b82 87bd bbfd 20be 8cfa d7bd eb47 953e
000003e0: e96e 72be 55c1 853e 2c18 403e dd81 303e
000003f0: 23bf 843d 5867 713e 0d42 35be ce34 43be
-0.009719862 0.10729476 0.13259766 0.22160172 -0.33102375 0.14026777 -0.2862116 0.041664697
-0.082222976 -0.1764886 0.06831867 -0.096177116 -0.11585114 -0.17863324 0.2662899 -0.29400086
0.19686586 0.12624557 -0.044650417 0.1218856 0.004359283 -0.07108249 -0.10273028 0.020039598
-0.19630532 -0.27497888 -0.17436898 -0.03460354 -0.07497208 -0.04058671 -0.009318031 -0.24419528
-0.15164983 0.32708696 -0.09630891 0.09269264 0.30134872 0.23142892 0.15232597 -0.023729907
0.24743488 -0.064341575 -0.2008606 -0.08616385 0.16318119 0.019601418 0.29851255 -0.2970545
-0.024278747 -0.14988355 -0.24479254 -0.16172417 -0.2547225 -0.16905595 -0.1337094 0.15435414
0.32077274 -0.2442731 -0.14336435 -0.2296506 -0.14714146 0.07015968 0.14072862 -0.2127348
-0.13412307 -0.08013749 0.2654103 0.41671488 0.10186026 0.13142931 0.25541562 -0.026800698
0.015422724 0.05006763 -0.041397918 0.15984125 0.104570806 0.16930048 0.28943983 -0.18635407
0.2469969 -0.32011342 -0.08314578 0.1484737 -0.07968292 0.22225638 -0.16088843 0.17745128
0.22304636 -0.10218587 0.21907768 -0.09650561 -0.1641093 0.30435398 -0.3014674 -0.20405091
0.029595714 0.0018562924 -0.20765594 0.123412244 0.3149256 0.15891692 -0.032713898 -0.24828216
-0.08151537 0.16975956 -0.2503167 0.04378984 0.30984178 -0.01932125 0.042206086 -0.23734085
0.020296771 -0.19788261 -0.20167404 0.05725093 0.05583276 0.12182015 0.18586224 -0.27939972
-0.24382192 0.091975555 0.053944968 0.22284062 0.20607589 -0.0024817644 -0.2759968 0.08863767
0.060692996 -0.27113757 -0.31107894 -0.34431285 -0.03347388 -0.092157006 -0.1684625 0.21725138
-0.1892122 -0.14455988 -0.24446374 0.06921586 0.11389864 0.12679175 0.19976619 0.26337692
-0.043390222 0.2874444 -0.10654796 0.21784878 -0.073405124 -0.07818463 0.13403742 -0.19672997
0.253542 -0.017227883 0.14564458 -0.14220999 0.1316332 0.012678549 -0.29917455 -0.067326374
0.10323705 -0.1974485 0.1148339 0.111653134 -0.14509887 -0.007834065 0.3425642 -0.21728265
0.24548772 0.11604246 0.11720265 0.15596981 0.06292872 -0.28000182 0.27968866 -0.24144174
0.01567659 -0.21134038 -0.203511 -0.37212068 0.052026194 -0.33141842 -0.34932506 0.080975235
-0.27858844 -0.004423706 0.056478187 0.2632118 0.03594091 0.23760544 0.005801934 -0.26829794
-0.2367762 0.23087691 -0.3117429 0.043869346 -0.0043519586 -0.030907847 -0.003828452 0.35271746
0.14780627 0.039947785 0.14979672 0.050374296 -0.053206805 0.027418785 0.02226124 0.013043067
-0.059334636 0.26155302 0.21670656 -0.11931386 -0.14831778 -0.22517526 0.03209549 -0.0797796
0.054720085 0.066839114 0.22884595 0.2579905 0.06910076 -0.28474942 -0.13573694 -0.11143958
-0.09706262 -0.2531353 -0.07504414 -0.04053855 -0.23820697 -0.21848024 0.023489835 0.14728399
0.38135004 0.106773816 0.25189114 -0.2121389 0.16757914 -0.101600505 0.07322177 0.14899184
-0.10886119 0.2058618 -0.29665002 -0.012794181 -0.066166006 -0.1572179 -0.10545835 0.29156432
-0.23675121 0.26124063 0.18759221 0.17237039 0.06481769 0.23574579 -0.17700978 -0.19063112

linear1.bias f4 [256]
00000000: 7fa8 063e 1a1c 863c d9e4 23bd 270b 853e
00000010: 927b 123c b311 9a3c 5cc9 e0bb aeac 3a3e
00000020: e4d5 7e3b bfb4 953e 81de 6dbe e839 8dbc
00000030: dfd2 49be bb3e 9f3e f98a 9cbe c42f 70be
00000040: 1f05 3a3e d010 283e ba20 b5bd dd18 2f3e
00000050: f9d0 08be 4d5a 70be 4813 d73d 30c9 5e3e
00000060: c887 423e cfac 2a3b aef2 debd 94da 1d3e
00000070: 7d97 03bc f0da bc3d 90c2 f33b 0395 e33d
00000080: 377b fc3d 0237 353e 2009 40be 9dd5 513e
00000090: 6a39 ed3d 4df4 ff3c c35d 2d3e 90fc 6a3d
000000a0: b83e 4ebe c1b0 163e 9389 f2bd 8b10 03be
000000b0: e232 93bd a7fa 2d3e 6967 f73d 0596 8f3e
000000c0: 40c3 8c3e ba87 c3be e00a 583e c89f f23d
000000d0: 02a8 4a3d 17ad d53d f7bf d53e 873a 0abe
000000e0: 4ad3 e7bd 33bb 09be 7d0f 1cbe 1fdc bdbb
000000f0: fb34 2a3e a024 00be 1700 5cbc 8a31 493e
00000100: ead8 a3bd 1ebb 783d 6e1a 72bd a14f ea3c
00000110: 55f5 adbd bcef 5dbe bd88 54be 8b1b 0c3e
00000120: 64f3 6cbd 078f 793e 9bbb 973c 231e 8f3e
00000130: 6964 19bc 8ad9 77be 2907 443e b73c 773d
00000140: 20aa e33b 0b1a b33e 21ea 29be 57b7 87be
00000150: d46e a7be d526 243e 95ca 07be 8714 fd3c
00000160: c2a2 d03b 33ba 25be bf33 443e 80ee 12bd
00000170: fa2a 48be 40f3 03bd 7c5e 673d 2c6b 7fbc
00000180: 02c3 433d d77f 893d bdbe 95be f033 193e
00000190: a323 343d 5c42 acbe 9a73 7ebe 6ff5 5bbe
000001a0: f021 1e3e 9c49 f2bb 38bf 903e 5a59 d9bd
000001b0: c0b3 c8bc 281e 9bbd 7555 2fbe be60 ec3c
000001c0: 896e 883c 5c0a 1d3d ad51 a2be d13f f93d
000001d0: d889 84be 731d 333e ca34 91be 426e 8e3d
000001e0: 7dcb 7c3d 823f b93d 90de 3a3e c6dd 243e
000001f0: 6b36 aa3c c01b fabd fee3 0cbe 794a cebc
00000200: f195 25be 9007 793e 843e dd3d 5c41 663e
00000210: 50d6 4ebe 5e7f 4ebe dcd9 933d 41e7 033e
00000220: bf6f 2f3e d501 7abe 063f 61bd 2da0 adbe
00000230: c2a0 a5be 847b 853e 395e b43d 2ae5 c13c
00000240: 026c e03d e36b 57be 7251 343e 9cf6 51be
00000250: 1572 a5bd 55d2 7b3d 9f56 823e afe0 99be
00000260: 31d6 50be 0170 413e 357e 38bd 3d3d bd3d
00000270: b572 053e 050b 663e d86b 61be 0f97 d33c
00000280: 6c44 7b3d 99b4 7cbd fb4b 3bbe 5eb1 743e
00000290: 8d27 bb3d 4383 463c e244 6b3e 9e93 253e
000002a0: abcf 08be 6d7d a6be 1170 9e3e 9792 723e
000002b0: 9a6c 883d aebe 9dbc d822 473e 909b b83c
000002c0: 4540 163e d350 1e3e 8959 e4bc 8938 af3d
000002d0: 6030 32bc f95d 243e 99a7 7ebe cc79 343e
000002e0: 310e ce3d f984 123d cdb7 1c3e a356 0e3e
000002f0: 27e9 313d b79c 5cbd 2f14 6ebe 28e0 a13e
00000300: 498d 8dbe 2719 5abe 6726 43bd 9fb4 323d
00000310: 6d69 61bd efc0 bd3c 5a7c 1b3e e220 af3d
00000320: 33f2 86be 9f4c 233e e447 513e 7579 433e
00000330: bcac d9bd d24c acbd 7372 47be 7838 253e
00000340: ac61 a73d f5ce 9ebe db6c 6b3e 4a34 593e
00000350: 8fd5 883e 3621 6cbe bd83 00be ffd6 07be
00000360: 9ab3 453d 2c4b 443e 0048 c53d 79e1 f53d
00000370: b69d 263e d094 b83d 131b acbe 87ed 8cbd
00000380: 7903 8d3e 0704 95be 5aa5 84be 6a23 983d
00000390: 582c cdbc 1179 8a3d aa14 993c 1d37 343e
000003a0: f3e8 5c3e 7133 6a3d afb0 86bd 654d 303e
000003b0: f071 73be ebd6 d33b 6ba4 073e 5177 ddbd
000003c0: 81cb 11be 2b24 ff3c f832 d23d 9d1c 223d
000003d0: 946d 2a3e afd4 2e3e 1884 e73d 7dab 8dbe
000003e0: 2929 85bc 567b 34bd a276 de3d 6cbf b43e
000003f0: 9c0e a33d d144 223e 7685 f7bd 034d b2bd
0.13150214 0.016370822 -0.040013168 0.2598507 0.008940594 0.018807268 -0.0068599414 0.18229935
0.0038884813 0.2923946 -0.2322941 -0.017239526 -0.19709347 0.31102547 -0.30574778 -0.23455721
0.18166016 0.16412663 -0.08844133 0.17099328 -0.13360967 -0.23471947 0.105017245 0.21756434
0.18997109 0.0026042943 -0.10886131 0.15415412 -0.008031723 0.092214465 0.007438965 0.11112406
0.12328189 0.17696765 -0.18753481 0.20491643 0.115832165 0.031244421 0.16930299 0.05736977
-0.20141113 0.14715864 -0.118426464 -0.1279928 -0.071874395 0.16990148 0.12080271 0.28044143
0.27492714 -0.3818949 0.21097898 0.11846882 0.04947663 0.10433405 0.4174802 -0.13498889
-0.11319597 -0.13450317 -0.15240283 -0.0057940627 0.16621773 -0.12513971 -0.013427756 0.19647804
-0.080003574 0.060725324 -0.059107237 0.028602423 -0.08494059 -0.21673483 -0.20755287 0.13682382
-0.057849303 0.24370967 0.018522074 0.2795268 -0.009362319 -0.24204078 0.19143356 0.060360637
0.0069477707 0.34980807 -0.1659322 -0.26507065 -0.32701743 0.16030438 -0.13260873 0.030893577
0.0063670585 -0.1618431 0.19160365 -0.035871983 -0.19547644 -0.032214403 0.05648659 -0.015589517
0.047793396 0.06713837 -0.29247084 0.14961219 0.0439793 -0.33644378 -0.24848786 -0.21480344
0.15442634 -0.007394029 0.28270888 -0.106127456 -0.024499774 -0.07574111 -0.17122443 0.028854724
0.01665427 0.038339958 -0.3170294 0.12170375 -0.25886416 0.17491703 -0.28360587 0.06954624
0.0617175 0.09045316 0.18248963 0.16100225 0.020777902 -0.12212324 -0.13758847 -0.025181996
-0.1617048 0.24319291 0.108029395 0.2248587 -0.20198941 -0.20165774 0.07219288 0.12881185
0.17132472 -0.24414761 -0.054991744 -0.33911267 -0.3234921 0.26070797 0.08807034 0.023668844
0.10958101 -0.2103725 0.17609194 -0.2050423 -0.080784 0.061479885 0.25456712 -0.30054232
-0.20394208 0.18890382 -0.045042235 0.09240196 0.13032039 0.22465141 -0.22013795 0.025828866
0.06134455 -0.06169567 -0.18290703 0.23895785 0.09138403 0.012116256 0.22975495 0.16169593
-0.13360469 -0.32517567 0.30944875 0.23688732 0.06661339 -0.019255962 0.19446886 0.022535115
0.14672954 0.1546052 -0.027874725 0.08555705 -0.010875791 0.16051473 -0.24868621 0.17624587
0.100613005 0.035771344 0.1530449 0.13900237 0.043435242 -0.053860392 -0.23249887 0.3161633
-0.27646855 -0.21298657 -0.047644045 0.043629285 -0.055032182 0.023163287 0.15184155 0.08551194
-0.26356658 0.15947197 0.2043758 0.19089301 -0.106286496 -0.0841309 -0.19477253 0.16134822
0.08172926 -0.3101727 0.22990744 0.21211353 0.26725432 -0.23059544 -0.12550254 -0.13265608
0.048266985 0.19169301 0.096328735 0.12005896 0.162711 0.09012759 -0.33614406 -0.06881242
0.27541712 -0.29104635 -0.25907403 0.0742863 -0.025045559 0.06761373 0.018686611 0.17599149
0.21573238 0.057177965 -0.065766685 0.17217024 -0.23773932 0.006464829 0.13246314 -0.108137734
-0.14237787 0.031145176 0.10263628 0.03957807 0.16643363 0.1707332 0.11304492 -0.27669898
-0.016254978 -0.044062935 0.10862471 0.35302293 0.07961771 0.15846564 -0.120860025 -0.08706095

linear2.weight f4 [3, 256]
00000000: c6bb 95ba a867 063d 0044 0bbd 0d4e 17bd
00000010: 7e5f 5f3d 433b e13b a335 62bd 9914 50bd
00000020: f32d 4c3d 3223 29bd 5b99 043d d306 e83b
00000030: 9359 88bc 1844 b9bd 1f67 44bd 6a70 dfbc
00000040: ade3 cf3d 384b 6cbd 9682 22be 415b 5abd
00000050: 20df babb 81a0 d6bc 80f3 793b 730a 743c
00000060: 7cb0 763c f5bc 9a3d 79c9 b03d 2dd9 e23d
00000070: 1f42 403c bdf4 11bd 8d01 583e 79c2 50bd
00000080: 9160 e1bc 594f 85bc 115f 2a3d 800d 8a3d
00000090: 0fc2 503c 5221 87bc 6411 63bc 8225 353e
000000a0: 86b0 093d 149a 803b ab86 533d ca67 b4bc
000000b0: d4c6 a9bd 69e3 9e3b 7ae2 51bd f663 31bb
000000c0: 82f1 adbd 7af8 933c 7d97 53bd 5696 e43d
000000d0: 5566 1fbd 5563 693d 64a2 323e 60f6 e0bc
000000e0: 931f b13c 69ca 8fbd a0f5 c3b8 d0fa 4dbd
000000f0: 36be b83d 24dc 9ebb ceb0 a3bc 6641 c33d
00000100: 9c08 85bc 805b 2fbd ba18 91bd 98dd d03c
00000110: 1df1 1a3e 5fd3 23bd 552f 67bd 8693 42bc
00000120: 63ce 30bd 449d 063d 25c5 8fbc ea11 bfbd
00000130: fdf9 1ebd c9f3 cd3d 2209 85bc 6e8f 813d
00000140: 99cf d53d ff29 383e e86f 8b3d ab1a 8dbb
00000150: 6c4b 7a3d 678f d5bd 1aa6 69bd 0325 ccbc
00000160: d7ee 593d 8f1a e2bc ff47 1dbd a074 33bd
00000170: 066e 293d fad7 99bc 007b 3d3e e828 373e
00000180: 4a31 5b3d ea9d 98bd b052 b83b d1cc 703d
00000190: ffe3 013d 1048 8b3d dc10 8abc efaa 08bd
000001a0: 686c c7bb 920b babb 86f2 6dbc ed14 fe3d
000001b0: 3387 113a f123 9b3c bc6b 47bd ca10 dfbd
000001c0: 1b0a b83c 18bb 91bb 4d75 a5bc 321b c0bc
000001d0: 6fe5 36bd 5f78 28bd 6c02 5f3b d154 873d
000001e0: e2c4 9f3b 2222 2c3d f2d9 a7bd 7366 90bc
000001f0: f571 bfbd c99c eebc c1e8 493d c64f 013d
00000200: 5fba 27bc b7cb a3bd 458d e7bd 41ca 223c
00000210: dfdc c5bc c49d 203e 8cc4 163d 4556 603d
00000220: 53f8 c2bc 76b9 433c d25d e43c 4e52 8b3c
00000230: e818 823d 60ab 92bd 418c 693d 6d15 99bd
00000240: d244 1d3d ced6 7cbd 8fc4 d3bd 497e 4cbd
00000250: 1e37 0a3d bca2 87bc 1793 c4bd e224 73bd
00000260: bc8e babc e3e2 8bbd 5b64 983b 7399 99bc
00000270: 0ae0 b8bd a950 e0bc 399b eb3d b62d 67bd
00000280: 3a05 913c b326 ccbd 5026 063e a2d4 0bbc
00000290: 0fdc a53d ef35 e63d 3053 e2b9 6164 43bd
000002a0: d4c7 7fb9 aad5 e8bc 78c0 8d3d 32e2 09bd
000002b0: 0d9e 9dbc 5d3b b43c a892 853d 1b43 cdbd
000002c0: 489d 113e a469 adbd 559b 29be ebb9 0ebc
000002d0: 7241 3dbd 0206 febc 7f68 84bd 09bf 95bc
000002e0: 7fdb c83d 98f7 b43c be75 d0bb 2aad b8bb
000002f0: d441 dc3b 03c3 aa3d 3069 113d 9e36 72bd
00000300: 7bb9 033d 4702 92bd 4193 18bc 1626 70bd
00000310: 4e87 8b3d 770c 59bc 67c4 2b3d df3c 8bbb
00000320: 7485 a7bc c127 94bb 5b3c 803d bdc9 ad3e
00000330: 8d06 d33d 4545 643c edb3 983d f8db 713e
00000340: 4544 063d e741 22bd b1a8 f8bc f741 2dbd
00000350: 65f8 b6bd b0fb 623c 69f8 c7bc 633c d4bc
00000360: 6892 23bd 52bb 5c3b 78be bfbc d0f6 7eb8
00000370: 9f18 97bd d559 20bd 8e90 7fbb 5afa c33c
00000380: f800 ea3c d82d 9f3c 1c7e 803c c2b3 7f3c
00000390: 172f 4dbc 22e3 af3d f856 41bb 7a5d 1a3d
000003a0: 4b5b 5ebd 2459 31bd ca3e 003e 2617 21bc
000003b0: 4a70 9b3d 7205 6abd f3c5 103e f707 c63c
000003c0: e5ba 53ba 346c 42bb 5a74 c5bd 99f6 d53d
000003d0: 1d77 573c b56d 623d 924b 9f3d 16bd 60bc
000003e0: c661 c8bc 3efc 553d 822d 473e 6b9a 113e
000003f0: 85cd 0cbd 606c 3c3d 19aa 673c 2983 b73d
-0.0011423759 0.032813698 -0.034000397 -0.03693967 0.054534428 0.0068735196 -0.055226933 -0.050800893
0.049848508 -0.04129333 0.032372814 0.0070808916 -0.016644275 -0.09046191 -0.047949906 -0.027275283
0.101508476 -0.05768892 -0.15870127 -0.053309683 -0.005702868 -0.026199581 0.0038139522 0.014895069
0.015056726 0.07555572 0.08632178 0.11076579 0.0117345145 -0.03563379 0.21094342 -0.050966714
-0.027511867 -0.016273187 0.04159457 0.06740856 0.01274158 -0.01649538 -0.013859127 0.1769009
0.03361561 0.0039246175 0.0516421 -0.022022147 -0.082898766 0.0048488867 -0.051241376 -0.0027067638
-0.084933296 0.018062819 -0.051658142 0.11161487 -0.03891595 0.056979496 0.1744476 -0.02746123
0.021621501 -0.070210285 -9.344076e-05 -0.05028802 0.09020655 -0.00484802 -0.019981768 0.09533958
-0.016239457 -0.04281187 -0.07084794 0.02549629 0.1513104 -0.0399965 -0.056441624 -0.011875993
-0.043165576 0.032864824 -0.01755006 -0.09329589 -0.038812626 0.10056264 -0.016239706 0.06326185
0.10439987 0.1798477 0.06808454 -0.0043061576 0.061107084 -0.104277425 -0.057043172 -0.024919992
0.05320629 -0.027600555 -0.03839874 -0.043812394 0.041364692 -0.018779743 0.18503952 0.17886698
0.053513803 -0.07451995 0.0056250915 0.05878908 0.031711575 0.06800854 -0.016853742 -0.03336614
-0.006085921 -0.005677649 -0.014523154 0.12406335 0.0005551457 0.018938037 -0.048686728 -0.10891874
0.022465756 -0.004447352 -0.020197535 -0.023450468 -0.0446524 -0.04113042 0.0034028543 0.06607974
0.004875765 0.04202474 -0.08195867 -0.017626977 -0.093479075 -0.029127495 0.049294237 0.03157022
-0.010237305 -0.0799784 -0.11306242 0.009935916 -0.024153171 0.15685183 0.036808535 0.054769773
-0.02380005 0.011946073 0.027876768 0.01700702 0.06352407 -0.071615934 0.057018522 -0.0747479
0.03839571 -0.06172829 -0.10340225 -0.049925122 0.03374397 -0.01655709 -0.09598368 -0.059361346
-0.02277314 -0.068303846 0.004650635 -0.018749928 -0.09027107 -0.027382212 0.11504216 -0.056440078
0.017702688 -0.09968319 0.13100553 -0.008534582 0.080986135 0.11240756 -0.0004316806 -0.04770315
-0.00024393137 -0.028422195 0.06921476 -0.033662982 -0.019240404 0.022000963 0.06522113 -0.10022565
0.14220154 -0.08467415 -0.1656316 -0.0087113185 -0.04620499 -0.031008724 -0.064652435 -0.01827957
0.098074906 0.022090718 -0.006361692 -0.005635877 0.0067217145 0.08337977 0.035500705 -0.05913412
0.03215931 -0.071293406 -0.009312452 -0.05863007 0.06812917 -0.013247601 0.04193535 -0.0042491998
-0.020449378 -0.0045213406 0.06261512 0.33942977 0.10303984 0.013932531 0.07456193 0.23619068
0.03277995 -0.03961363 -0.030353876 -0.042299237 -0.08934096 0.013853952 -0.024410443 -0.0259077
-0.039934546 0.0033680988 -0.023406252 -6.078818e-05 -0.07377743 -0.03914817 -0.0038996073 0.023923088
0.028564915 0.01943104 0.015685134 0.015606822 -0.012523434 0.08588244 -0.00295013 0.037686802
-0.054286283 -0.0432979 0.12523952 -0.009832179 0.07589777 -0.0571341 0.14138012 0.02417372
-0.00080768607 -0.0029666545 -0.09641333 0.104474254 0.013150957 0.055280406 0.07778086 -0.013716957
-0.024460685 0.05224251 0.19450954 0.14219062 -0.034375686 0.046001792 0.014139676 0.08960564

linear2.bias f4 [3]
00000000: a220 86bd e2aa 23bd 0052 4cba
-0.06549193 -0.03995789 -0.00077942014
